examples/vision/pytorch_model.pth (torch, 97472 bytes, 4 tensors)

fc1.weight f4 [30, 784]
000000 e8 8b 07 3d b5 81 dd bc 9e 97 f6 bc 9c 24 d8 3c
       0.03309241 -0.027039388 -0.030101594 0.026384644
000010 05 45 0f 3d e1 e2 77 3c 73 ef f1 bc 6a f1 2f bc
       0.03497793 0.015129776 -0.029533124 -0.01073871
000020 17 91 02 bc 27 f3 a8 bc 73 99 73 3c 1a 27 c8 bc
       -0.007969162 -0.020623757 0.014868128 -0.024432708
000030 95 8f 1b 3d ac 6d 22 3e f1 c7 1d 3e ed 65 e4 3d
       0.037978727 0.15862149 0.15408303 0.11152253
000040 c5 9a e5 bc 8a 62 ff bb 45 9b 97 3c e8 8e e9 bc
       -0.028027901 -0.007793729 0.018506655 -0.028510526
000050 0c da 11 3d 8a ab c8 3b 85 47 32 3c 25 7f 85 3a
       0.035608336 0.0061239647 0.010881309 0.0010184987
000060 bc f3 06 bc 7e 8e ef bc f7 f6 98 bc 6e 57 01 ba
       -0.008236822 -0.02924275 -0.01867245 -0.00049339875
000070 d2 9b 04 bd fa 68 e6 3c 0a 0a 03 bd 47 00 d4 3c
       -0.032375164 0.028126229 -0.031991996 0.025879038
000080 83 90 81 bd f3 65 02 be 09 cb 30 be f0 43 76 be
       -0.063263915 -0.12734203 -0.17264952 -0.24049354
000090 27 68 52 be 63 fb 8e be a3 90 a2 be 6c 63 43 be
       -0.20547543 -0.27926168 -0.31750974 -0.19080895
0000a0 43 c2 87 be af 3c 5f bd d7 ac ea 3d 36 2e e6 3c
       -0.26515397 -0.05450123 0.11458748 0.028098207
0000b0 ae b8 7d 3e 43 9f 05 be 5f 45 e6 be fe d7 d9 be
       0.24777481 -0.13049035 -0.449748 -0.425476
0000c0 63 27 e3 be 2e e1 bb be 17 fd 88 be 48 59 45 be
       -0.44365987 -0.36695236 -0.26755592 -0.1927234
0000d0 b7 36 bc bc d3 00 61 3c f1 b6 ab 3c 0a 67 ef bb
       -0.022975309 0.013733107 0.020961257 -0.0073059844
0000e0 d8 52 74 3c 81 91 ec 3b de c0 7e bd 16 67 06 3e
       0.01491233 0.007219494 -0.06219565 0.13125262
0000f0 80 29 45 be 34 f0 f3 bc 99 fa 05 bd ee a5 97 be
       -0.19254112 -0.029777624 -0.03270969 -0.29618782
000100 f4 22 b0 bd 07 70 ef 3d fc 90 f3 bd ec 00 76 be
       -0.08600417 0.116912894 -0.11892888 -0.24023789
000110 02 37 10 3e 86 93 97 3e 0f 64 6d 3e 67 49 05 3e
       0.14083484 0.2960474 0.231827 0.13016282
000120 a8 20 86 3d 20 d6 e5 3a 70 7a 93 bd 11 19 34 be
       0.065491974 0.0017535128 -0.072010875 -0.17587687
000130 a6 85 b4 bd eb 98 42 bd 4c 93 7b be bd 90 82 be
       -0.08814554 -0.047509115 -0.24567908 -0.25501052
000140 d5 e8 81 bc be a0 25 3d 3a 7c fd 3c ab 45 03 3d
       -0.015858093 0.0404365 0.030943025 0.032048862
000150 03 d3 96 3c 2a a0 58 bc 2d 7a 84 3d 0f ca 9f bc
       0.018411165 -0.01322178 0.06468616 -0.019505529
000160 57 3e 91 be af 42 2d be 74 c0 37 be 88 b2 66 3a
       -0.28367874 -0.16919969 -0.17944509 0.0008800407
000170 c1 c8 96 bc 21 81 5c 3d 09 e6 ec 3b 12 d4 6d 3d
       -0.018406274 0.053834084 0.0072295708 0.058063574
000180 f5 05 05 3e 3e 2b 4b 3e 26 42 79 3e 33 6c 75 3e
       0.12990554 0.19840714 0.2434164 0.23967056
000190 b2 71 92 3e c7 22 5d 3e 3c 7e 62 bd de a2 41 bd
       0.28602368 0.21595298 -0.055296168 -0.047274463
0001a0 17 b6 8e be 8e ab 3d be 2e d8 bd bd a6 37 82 be
       -0.278733 -0.18522474 -0.09269749 -0.2543308
0001b0 91 f6 2d be a8 04 1d be 1a 8d 3f be 15 f0 c4 3c
       -0.16988589 -0.15333807 -0.1870617 0.024040261
0001c0 8a f6 d1 3b b0 19 8f 3d 80 54 58 3d af e5 31 be
       0.0064075636 0.069873214 0.05281496 -0.17372774
0001d0 62 67 80 be b4 9c a2 bd 58 30 91 3e 14 a4 da 3e
       -0.25078875 -0.07940045 0.28357196 0.42703307
0001e0 61 99 9c 3e ed 2b 67 3e fd 56 d6 3d af 15 22 3d
       0.3058577 0.2257535 0.104658104 0.03957146
0001f0 7c c6 97 3d 8a 83 53 3e 4f ae 35 3e fa 5b 59 3e
       0.07410905 0.20655647 0.17742275 0.21226493
000200 40 5b 67 3e 2b 52 88 3e b3 ae 8a 3e a2 a7 27 3e
       0.22593403 0.2662519 0.2708641 0.1637254
000210 36 ae 5e 3e 45 8c 43 bc cd 63 9d 3c 94 ee ae bd
       0.21746144 -0.011935298 0.019212628 -0.08541599
000220 fa e1 9e be 41 88 34 bd f5 e7 12 be f2 01 bb bd
       -0.3103178 -0.044075254 -0.14346297 -0.091312304
000230 21 b2 5e 3c 0e a5 fc bc fe 40 8e bd 29 9c b0 3d
       0.013592274 -0.030840423 -0.0694599 0.08623535
000240 c2 5b 33 be fc 88 43 bd 94 47 1a ba e8 73 85 bd
       -0.17515472 -0.04773806 -0.00058853 -0.06516248
000250 64 1a 61 bd 3e 17 81 bd a7 ae 9a bd 71 61 1f bd
       -0.05495681 -0.06303261 -0.075528435 -0.038911287
000260 d8 f6 ad bd 98 94 b2 bb df d0 7f 3d c9 62 8c 3d
       -0.08494347 -0.0054498427 0.062455054 0.06854779
000270 1e f6 27 3e a9 d2 58 3e 3e e0 9b 3e 12 80 5b 3e
       0.1640248 0.2117411 0.3044452 0.21435574
000280 66 89 31 3e ab 5a 72 3e 83 49 14 3e 90 b4 d7 3c
       0.1733757 0.236674 0.14481167 0.026331216
000290 44 67 30 be e4 ed 46 be c7 bd c5 be 6f 9a 39 be
       -0.17226893 -0.19426686 -0.3862135 -0.18125318
0002a0 ca b9 06 bd 51 00 4c bc e7 d7 26 be 0f 79 f0 3d
       -0.032892026 -0.012451247 -0.16293298 0.1174184
0002b0 cc 69 49 be 6f ad 10 be 92 e9 b6 bd 3a 78 23 be
       -0.19669265 -0.1412866 -0.08931269 -0.15963832
0002c0 ce d8 66 be 5e e3 ba bc 06 e0 2f bd 14 77 ad bd
       -0.22543642 -0.022813495 -0.042938255 -0.08469978
0002d0 51 60 97 bd 5b 8c d7 3c b2 e5 a2 3d fa 89 83 3d
       -0.07391418 0.026312044 0.07953967 0.06422801
0002e0 ca 19 04 3e 5b 40 a1 3d 9e 54 54 3e d4 db 34 3e
       0.12900463 0.07873603 0.20735404 0.17661983
0002f0 53 33 48 3e 7b 01 44 3e 51 ee 1f 3e 3e bf a3 bd
       0.19550829 0.1914119 0.15618254 -0.07995461
000300 63 e9 b6 be 76 c7 2b bf 6d fe f5 be a7 e9 0f be
       -0.35724935 -0.6710123 -0.48045674 -0.14053975
000310 25 f9 80 bc 42 36 95 be e8 e5 1f be 5d ae bf 3d
       -0.015743801 -0.29142958 -0.15615046 0.09359429
000320 4b fc 1a 3d 36 63 88 bc 84 bc 6f 3d 98 b9 85 bd
       0.03783826 -0.01664887 0.058529392 -0.0652954
000330 85 e0 51 be 97 65 b8 bc bf 88 b0 bb 15 19 aa 3c
       -0.20495804 -0.02250938 -0.005387395 0.020763913
000340 7f 9f 8a bd 94 75 f6 3c 9d 3a 1d 3d 7d 70 ee 3c
       -0.06768703 0.030085362 0.038385976 0.029106373
000350 75 9a 2a 3e 9f 2e bb 3d a8 33 39 3e 54 1b 55 3e
       0.16660483 0.09139752 0.18086112 0.20811206
000360 39 cd 4c 3e f1 73 2d 3e 48 60 51 3e 63 33 91 bc
       0.20000161 0.1693876 0.20446885 -0.017724698
000370 34 82 7a be ae f0 e7 be 86 10 0a bf 9a fe 01 be
       -0.24463731 -0.45300812 -0.5393146 -0.12694779
000380 92 ff 66 3e fa 17 50 3d 2b 73 62 bd 35 ce c7 3d
       0.2255843 0.050804116 -0.055285614 0.09756128
000390 ab 4b 0d 3d 55 11 d5 bd 4b 80 ef bd 56 88 e4 bd
       0.03449599 -0.104036964 -0.11694392 -0.111588165
0003a0 85 94 fe bd 5e 8e 7f bd 66 62 0e bd 9c c2 44 bd
       -0.124306716 -0.06239163 -0.03476181 -0.048037156
0003b0 f9 5c 20 be a1 46 80 be 61 29 92 bd 40 63 c9 3d
       -0.15660466 -0.25053886 -0.07136799 0.098333836
0003c0 86 7f 87 3e 8a eb 65 3e 87 b1 68 3e 05 4d 72 3e
       0.2646448 0.22453132 0.22723971 0.23662193
0003d0 0a f6 52 3e d9 84 37 3e bb 5d a3 3d 0f 8f a5 3c
       0.20601669 0.17921771 0.07976862 0.020209817
0003e0 f4 05 89 be b6 f4 f6 be 0c a6 08 bf 73 1e 18 be
       -0.26762354 -0.48233575 -0.5337837 -0.14855365
0003f0 f1 e7 0a bd 67 ff 2b be 27 d1 f5 bd d6 9e 20 3e
       -0.033912603 -0.16796647 -0.12002783 0.15685591

fc1.bias f4 [30]
000000 01 63 9c bd d8 c7 9f 3e db 4f a6 3e b9 25 e1 3d
       -0.07636071 0.31207156 0.324828 0.10993523
000010 30 5c a4 3e 14 27 f4 bc 9a 69 46 3c ec c3 bd 3e
       0.32101583 -0.02980379 0.012110138 0.3706354
000020 29 d4 91 be 47 cf b4 3e c3 be 9e bd 00 d0 c9 3d
       -0.28482178 0.3531439 -0.07751229 0.09854126
000030 77 95 58 3e b6 94 c7 bb 2c 0d fb bd c9 4e 60 bb
       0.21150766 -0.006090726 -0.12258372 -0.0034226647
000040 f2 ec 9e be 75 51 8c 3d 3f 7a 97 3b 65 28 6e be
       -0.3104015 0.06851474 0.004622727 -0.23257597
000050 55 9f b5 3e c7 66 58 3d ac 6a 49 bd 86 f2 0f 3d
       0.35473123 0.05283239 -0.049173996 0.035143398
000060 b0 86 e0 bd ce e8 93 3e 51 3b ac 3d 0d e2 bb 3e
       -0.109631896 0.28888553 0.08409751 0.366959
000070 24 7e 9b 3e ec 6f c3 bc
       0.30369675 -0.02385708

fc2.weight f4 [10, 30]
000000 74 2d b0 3e d0 d2 92 be 12 af 91 3e 3b 70 51 3e
       0.34409678 -0.28676462 0.2845388 0.20452969
000010 b5 0e 90 3e 61 85 93 3e 58 a4 dd be 54 f2 04 3e
       0.2813622 0.28812698 -0.43289447 0.12983066
000020 30 6f a7 3d 64 1a c9 3e b1 00 5c 3c 99 18 bc 3e
       0.08175504 0.39277947 0.013427899 0.36737517
000030 f1 84 8e bf c0 81 d1 bd ba 73 52 3e 79 e5 8f bd
       -1.113432 -0.10229826 0.20551959 -0.0702619
000040 de 97 c5 be 8f 58 bc bd 9c 38 29 be e8 41 3e be
       -0.38592428 -0.09196579 -0.16525501 -0.18579829
000050 e2 3b ee be ff 1d ae 3e 3d 7f df 3d ee 0e db be
       -0.46530062 0.3400726 0.10912941 -0.42784828
000060 5b da 16 3e b5 76 20 be 9d 1a a0 3e bd 91 1f bf
       0.14731734 -0.15670283 0.31270304 -0.62331754
000070 a6 56 b4 bc db 57 05 be de e5 99 3e cb 81 a6 3e
       -0.022013973 -0.13021795 0.30058187 0.325209
000080 fc d4 41 3e e7 cd 07 3e cf 00 98 3e 3b db 3f be
       0.18928903 0.1326214 0.29688117 -0.18735974
000090 c6 fc 7f 3e a0 cb 4e 3f 97 2b 35 bf a9 a6 f3 be
       0.24998769 0.8077946 -0.7076964 -0.4758809
0000a0 b3 cc 81 3e 80 2f b9 be 4b 97 b1 3e a8 90 44 3d
       0.25351486 -0.36169052 0.3468574 0.047989517
0000b0 53 bf 38 bf a7 6b b8 3d 57 ad 88 be d9 37 34 3e
       -0.7216694 0.09004908 -0.26694748 0.17599429
0000c0 5e ac e6 bc 01 e4 89 3e d3 73 8d be dc b8 fa be
       -0.028158363 0.26931766 -0.2762743 -0.48969162
0000d0 5d 89 b9 be e5 ba 80 3e 19 0b 43 3e 30 6d 71 3e
       -0.36237612 0.2514259 0.19047202 0.23576808
0000e0 e9 31 65 be 7f e5 0f bf 5c 15 0b 3f 0c 71 2e be
       -0.2238232 -0.5620956 0.54329467 -0.17035311
0000f0 f6 2a be 3e 5c 54 86 3e ee 94 79 be cb 41 0b 3f
       0.37142152 0.26236236 -0.24373218 0.5439727
000100 5e 50 98 3e f9 35 ea be a5 db 01 bf ea aa a6 be
       0.29748815 -0.45744303 -0.50725776 -0.32552272
000110 23 7e 84 3d 77 e6 08 3f 30 e4 56 be a9 28 98 3e
       0.06469371 0.5347666 -0.20985484 0.2971852
000120 12 0e dc 3e e2 43 63 3c 93 35 ca be fb e6 dc bb
       0.42979485 0.013871165 -0.39494 -0.006741402
000130 10 6d 5d 3d 84 e8 23 3e 8f 93 30 be 96 38 1d 3e
       0.05405909 0.16006666 -0.17243789 0.15353617
000140 c2 81 26 3e f2 1d 83 bd 24 ff 61 3e 55 73 a3 3e
       0.16260436 -0.06402196 0.22069985 0.3192393
000150 5e 90 e5 bd ca 70 78 bf ef d1 51 3e 6f 1e ab be
       -0.112091765 -0.970471 0.2049024 -0.33421656
000160 78 7a bd be 7f cc ee bd 7e 9d 45 be e2 84 60 bf
       -0.370075 -0.11660098 -0.1929836 -0.87702763
000170 42 b2 c2 be 0c 7a 04 3d d1 38 73 3e 18 68 fd be
       -0.38026625 0.032342955 0.23752142 -0.4949348
000180 f9 40 0d 3e 0e 1a aa 3e 84 0d a0 3e d3 b5 9d bd
       0.13794316 0.33223003 0.31260312 -0.07700696
000190 c0 c1 14 3e 1b e1 48 bd f8 cd d3 be 00 dd a6 3c
       0.14527035 -0.049042802 -0.4136808 0.020369053
0001a0 18 de 05 3e 0a 48 08 39 ee e8 9e 3e c3 11 3c 3e
       0.13073003 0.00012996807 0.31037086 0.1836615
0001b0 1a 78 ea bd b4 1c 0c bd 3c 55 52 3d d4 9c e8 be
       -0.11448689 -0.03420706 0.051350817 -0.4543215
0001c0 ca 89 91 be ad 4f a0 3d b3 8d e3 3e bd 2f e2 bd
       -0.28425437 0.07827697 0.44444045 -0.110442616
0001d0 e6 f6 bd be 17 73 a0 3e 58 3f e7 be 4c 2c b9 ba
       -0.3710243 0.31337807 -0.45165515 -0.0014127581
0001e0 be b6 9b 3e f7 c7 af 3e 6a 9b 83 3e a8 af 62 bf
       0.3041286 0.3433225 0.2570451 -0.8854928
0001f0 aa 06 b6 bf f4 58 00 be 0e 72 b6 be d1 0a 72 bd
       -1.4220784 -0.12533933 -0.35633892 -0.059092347
000200 6f b7 be 3d bd 5b 00 bd e5 98 00 3e d9 96 e8 be
       0.09312331 -0.03133749 0.12558325 -0.45427588
000210 90 f6 4a be 7d 38 f1 bb 54 42 96 be 53 cf 20 bd
       -0.19820619 -0.0073614703 -0.2934748 -0.03926022
000220 a0 e4 a7 3d e1 79 77 be cc b9 23 3e 07 96 17 bf
       0.08197904 -0.24167587 0.15988845 -0.592133
000230 44 e5 b0 3e 1f 2f 6e bc 35 f3 b6 3e bb 49 94 be
       0.34549916 -0.014537602 0.35732427 -0.28962502
000240 28 55 84 be ce 44 f7 3e 45 cc 58 3e 9e 51 a1 3e
       -0.2584622 0.4829468 0.21171673 0.3150758
000250 e4 85 12 bf dc bd bd 3d 67 5b 27 bf 52 7c 60 bf
       -0.5723555 0.092647284 -0.65373844 -0.876897
000260 ee ec 94 3e fe 39 6c bf 1e f9 0a 3f 28 53 65 3e
       0.29087013 -0.9227599 0.5428637 0.22395003
000270 40 2b fd 3e 55 11 ec 3d 9d 44 11 be 66 3a 08 3f
       0.4944706 0.11526743 -0.1418633 0.5321411
000280 b1 75 02 bf ee d1 e1 3d ca 84 ab 3e bf 78 d9 3d
       -0.5096083 0.11026369 0.33499748 0.106187336
000290 94 04 85 3d e4 d8 1d bd c2 1d 46 3e 07 2f 6a bf
       0.06495014 -0.03853692 0.19347289 -0.9147801
0002a0 07 29 1c be 48 37 aa bd d3 99 a4 3e b1 fe d5 3d
       -0.15250026 -0.08311325 0.3214861 0.10448969
0002b0 59 fd 03 bf 1c ff 1b bc 23 e8 04 3d 46 c6 23 3e
       -0.5155845 -0.009521272 0.032447945 0.15993604
0002c0 41 82 d7 be 91 f3 79 3e a0 20 a3 3e 1a 57 2b bd
       -0.42091563 0.2440932 0.31860828 -0.041831113
0002d0 eb 0f c8 be cc 4f 0d 3f 4d 58 02 bf 22 69 17 3e
       -0.39074644 0.55199885 -0.50915986 0.14786199
0002e0 60 02 31 3d 56 30 0e 3f 31 16 eb be 3e 86 6b 3e
       0.043215156 0.55542505 -0.45915368 0.23000428
0002f0 3a c7 9c be 78 60 c9 be 91 25 86 3e 2f 23 d9 3d
       -0.30620748 -0.39331412 0.26200536 0.10602414
000300 00 ea a3 3b 4e 01 c5 bd d0 9f ad 38 2a e8 f6 bc
       0.00500226 -0.096193895 8.27905e-05 -0.030140001
000310 b4 2b 35 bf 59 23 75 bf f1 30 0b be 2c 49 54 be
       -0.7076981 -0.9575706 -0.13592888 -0.20731038
000320 81 21 94 3e c9 d3 b2 3e ac 09 a5 bc 48 81 cd 3d
       0.2893181 0.34927204 -0.020146213 0.10034424
000330 c9 00 f9 3d 93 22 be bd 6b 0e c2 3e c9 d3 82 bf
       0.12158353 -0.09283938 0.37901625 -1.0220882
000340 6f d9 81 be 15 ba 1b be 5b 52 02 bd fb ef aa 3e
       -0.253612 -0.15207703 -0.03181682 0.33386216
000350 42 ae be 3e c2 1a ca 3e 5b af 50 be 38 23 d0 be
       0.37242323 0.3947354 -0.20379393 -0.4065187
000360 61 e8 3f 3d 02 bd d9 3e bd 3e 28 3e ba 64 80 3e
       0.046852473 0.42527014 0.16430183 0.25076848
000370 4f c4 b1 be b5 c1 28 3d 26 c5 37 3c 7c 88 0c 3c
       -0.34720084 0.04120036 0.011216437 0.008577462
000380 33 f9 07 3e 93 55 b8 3d 0b 9f 5e bf 44 3b f3 3e
       0.13278656 0.09000697 -0.8696143 0.47506154
000390 c1 a3 f1 bd 25 21 19 bf 94 0b 4d bf 85 35 bb bd
       -0.11798812 -0.598162 -0.8009579 -0.091410674
0003a0 ef e3 2a be 98 6c 0a 3f 21 c0 b0 be 2f 37 61 bc
       -0.16688512 0.5407195 -0.34521583 -0.013746067
0003b0 9a b1 13 bd 8e bf a4 3e 36 35 45 bd bc 1b 1c 3e
       -0.036058046 0.32177395 -0.04814645 0.15244955
0003c0 d1 16 51 bf 3c 24 aa bc cf 04 0a 3e a6 53 7f bd
       -0.8167544 -0.020769231 0.13478397 -0.062335633
0003d0 7c 39 56 bf ad c5 05 3e 3a 59 d0 be d1 3f 00 bf
       -0.83681464 0.13063689 -0.40693074 -0.50097376
0003e0 98 11 82 3e 29 cf 3a bf 22 e2 83 3d 13 4a f4 bd
       0.25404048 -0.7297235 0.06439616 -0.11928191
0003f0 b9 bf 18 3e da d1 97 3d eb a7 77 3e 84 91 fb 3d
       0.14916886 0.07413073 0.2418515 0.12283614

fc2.bias f4 [10]
000000 e5 3c ed be ce 66 d6 3d 47 99 6b bc 38 bb 92 3d
       -0.4633552 0.10468827 -0.014379806 0.071646154
000010 d3 48 03 3e 79 95 f7 3e 63 18 4f 3d a3 e1 19 3e
       0.12820749 0.48356226 0.050560366 0.1502748
000020 f3 08 80 bd df d2 00 bd
       -0.06251707 -0.031451102
